tflite/float_model.tflite (tflite, 84172 bytes, 4 tensors)

first_bias f4 [8]
0.02067497 -0.04379916 -0.025025202 -0.028541815 0.014290763 0.00025807938 -0.004391879 -0.07076579
00000000: 8e5e a93c bf66 33bd a701 cdbc 86d0 e9bc
00000010: ce23 6a3c d44e 8739 c0e9 8fbb a8ed 90bd

final_fc_bias f4 [5]
0.036525395 -0.022122428 -0.015120553 0.012252695 -0.0115351295
00000000: a79b 153d 183a b5bc 32bc 77bc 87bf 483c
00000010: d7fd 3cbc

MatMul f4 [5, 4000]
-0.007893685 -0.009322347 0.0017420605 0.001083666 -0.011817276 0.0008778629 0.009755208 0.0010030948
-0.030770257 -0.0061044553 0.003082056 -0.016793482 0.0036407001 -0.0058350805 -0.0005820132 0.012713963
-0.022339812 0.0055001695 -0.0030166346 0.009609233 -0.012302274 0.0011162995 -0.0019707843 0.0084106345
-0.015159386 0.002962225 0.007768645 0.0012763187 0.0055507543 0.0046646288 -0.0033159687 -0.02622102
-0.028247746 0.0115360925 -0.0034519364 -0.008817907 0.010507084 0.0063742683 -0.010845869 -0.026420537
-0.018801264 0.01168762 0.0042077824 -0.011191324 0.018892156 0.0012329906 0.00788528 -0.010829346
-0.008350538 -0.0069698533 -0.004960026 0.0014652818 -0.009706274 -0.0057485695 -0.01215066 -0.013947783
0.0060205986 -0.003540273 0.010052398 -0.0052654436 -0.0063613555 0.004211158 -0.003275183 -0.008169802
-0.017282162 -0.007727001 0.008559217 -0.0022422033 0.013540647 -0.00075990334 0.013329425 -0.007247828
-0.009803317 -0.0050476333 0.009030597 0.0029601997 0.0030279732 0.00520283 0.0028816476 -0.0060613425
-0.010163762 -0.009367912 -0.0029592752 -0.011405117 -0.013695503 -0.00875597 -0.0060674306 -0.0022304263
-0.015275392 -0.0019528955 0.0002904169 -0.00761018 -0.0044893147 -0.008153371 -0.0029515105 -0.012922462
-0.011772077 0.013325162 -0.006471232 -0.005105371 0.009686417 0.010760266 0.0028648726 -0.008415115
-0.016451683 0.014318304 0.010196886 0.0024398172 0.017489221 0.016783377 0.0011920072 -0.0018279303
-0.0023917835 0.014844183 0.018917607 -0.016128005 -0.009324656 0.00032338256 0.011228189 -0.009265688
-0.010620614 0.0028347913 -0.012695143 0.00215696 0.0064152554 0.01072899 -0.0020003417 -0.0132382065
0.0087694945 -0.010966321 -0.00052941253 -0.01442563 0.000929899 -0.0055639236 0.008432695 -0.0013944365
-0.014163776 0.015139545 -0.010697012 0.006824291 0.0046180068 -0.0017054402 0.018008063 0.007595374
-0.0012540176 -0.0020257437 0.0018047551 -0.010202172 -0.005760941 -0.0023577232 -0.0036492762 -0.00047567938
-0.007205037 0.007205771 0.012990278 0.0030555662 0.008371095 -0.015360816 0.009571885 -0.0021155844
0.014443436 -0.012859328 -0.018730966 -0.017098585 -0.003388973 0.0130637465 0.0014643548 0.017196503
-0.0037378464 -0.007433645 -0.0072382432 0.00071208994 -0.019878905 0.004165588 -0.0036082736 0.040264737
0.006705823 2.508756e-05 0.0024882916 0.003996578 -0.010161233 -0.00654437 0.012577368 -0.0028416477
-0.0028498827 -0.005199647 -0.013808647 0.011753938 -0.008951602 0.005371921 0.0021563338 -0.018791161
0.017562049 0.0061569014 0.012774785 0.009479776 0.0013786745 0.003979507 0.009716805 -0.011298239
0.0136616 -0.013768326 -0.0011843183 -0.0022488346 0.0017269307 0.01173609 0.011399953 -0.021897007
-0.01349873 -0.0014192819 0.0048491033 0.013761565 0.015760997 -0.010268511 0.014084775 -0.01892807
-0.011965987 0.007984178 -0.005339185 -0.0016412997 0.001330841 -0.011608161 -0.008491405 -0.024488999
0.0041612005 0.0022818465 0.003999686 -0.0016003639 0.0059112464 0.0010866625 0.006871627 -0.0047454806
-0.0015639161 0.006240655 0.0056601595 -0.002497454 -0.006623698 0.01072586 0.0071262997 -0.009278405
-0.009328025 -0.000272297 -0.014925357 -0.013425187 0.017894285 -0.00560136 0.0010441246 -0.0034535022
0.01134046 0.012903409 -0.010487844 -0.008473112 -0.010599229 0.0062975893 -0.007848611 -0.010903297
00000000: 8454 01bc c2bc 18bc da55 e43a cc09 8e3a
00000010: 3f9d 41bc 6220 663a 4fd4 1f3c 477a 833a
00000020: e811 fcbc e207 c8bb 52fc 493b 7c92 89bc
00000030: d098 6e3b 3434 bfbb 3f92 18ba 3a4e 503c
00000040: fb01 b7bc c43a b43b bbb2 45bb 0b70 1d3c
00000050: 7a8f 49bc cc50 923a 4628 01bb c2cc 093c
00000060: 135f 78bc e321 423b 1e90 fe3b 264a a73a
00000070: 1ae3 b53b bed9 983b b950 59bb 77cd d6bc
00000080: d167 e7bc e101 3d3c e239 62bb fc78 10bc
00000090: e825 2c3c 3ddf d03b dfb2 31bc e26f d8bc
000000a0: 1c05 9abc 6e7d 3f3c 70e1 893b d15b 37bc
000000b0: b9c3 9a3c 4d9c a13a 4331 013c 926d 31bc
000000c0: b2d0 08bc 5e63 e4bb b787 a2bb b30e c03a
000000d0: 1007 1fbc 7f5e bcbb 9013 47bc 3e85 64bc
000000e0: 7148 c53b ed03 68bb d0b2 243c be89 acbb
000000f0: eb72 d0bb c1fd 893b 74a4 56bb a2da 05bc
00000100: 5293 8dbc c832 fdbb f53b 0c3c eef1 12bb
00000110: 97d9 5d3c 4034 47ba a963 5a3c 307f edbb
00000120: 179e 20bc 9e66 a5bb 12f5 133c e9ff 413b
00000130: f670 463b 807c aa3b 06da 3c3b 3a9e c6bb
00000140: e885 26bc df7b 19bc 66f0 41bb 87dc 3abc
00000150: 1a63 60bc 3375 0fbc 4cd1 c6bb 582c 12bb
00000160: a345 7abc 4df8 ffba 1943 9839 d15e f9bb
00000170: 1a1b 93bb b795 05bc 216e 41bb bcb8 53bc
00000180: abdf 40bc c851 5a3c a10c d4bb f54a a7bb
00000190: c7b3 1e3c d44b 303c 96c0 3b3b 8ddf 09bc
000001a0: aec5 86bc 5297 6a3c d710 273c 57e5 1f3b
000001b0: 8e45 8f3c 4b7d 893c 203d 9c3a 2a97 efba
000001c0: 78bf 1cbb 0435 733c 19f9 9a3c e11e 84bc
000001d0: 71c6 18bc ac8b a939 70f6 373c 1dcf 17bc
000001e0: 1502 2ebc e8c7 393b 4aff 4fbc c95b 0d3b
000001f0: 1037 d23b a5c8 2f3c 2a18 03bb 10e5 58bc
00000200: edad 0f3c 16ac 33bc 46c8 0aba 7a59 6cbc
00000210: 77c4 733a 9351 b6bb 4929 0a3c 86c5 b6ba
00000220: 2f0f 68bc db0b 783c 8542 2fbc 4d9e df3b
00000230: a652 973b 1489 dfba a585 933c 9de2 f83b
00000240: d95d a4ba 57c2 04bb 888d ec3a 0327 27bc
00000250: 47c6 bcbb 0884 1abb b228 6fbb 9b64 f9b9
00000260: 3b18 ecbb 631e ec3b 2dd5 543c e53f 483b
00000270: eb26 093c efab 7bbc 65d3 1c3c 9ea5 0abb
00000280: 29a4 6c3c eeaf 52bc af71 99bc 5512 8cbc
00000290: 8819 5ebb 5309 563c 98ef bf3a aedf 8c3c
000002a0: a8f6 74bb ef95 f3bb c92e edbb 8cab 3a3a
000002b0: 16d9 a2bc 7c7f 883b c978 6cbb a3ec 243d
000002c0: 85bc db3b 2073 d237 9b12 233b baf5 823b
000002d0: 4d7b 26bc 2872 d6bb 4e11 4e3c f03a 3abb
000002e0: 19c5 3abb cd61 aabb aa3d 62bc 9793 403c
000002f0: bda9 12bc f106 b03b 4751 0d3b ecef 99bc
00000300: 49de 8f3c d5bf c93b 554d 513c 1051 1b3c
00000310: a4b4 b43a 8666 823b 3c33 1f3c 401c 39bc
00000320: e7d4 5f3c 8b94 61bc 213b 9bba 2f61 13bb
00000330: 2e5a e23a bb48 403c dec6 3a3c 5a61 b3bc
00000340: c729 5dbc 3307 baba 3ae5 9e3b 3078 613c
00000350: 351d 813c 423d 28bc d4c3 663c 0a0f 9bbc
00000360: fd0c 44bc 12d0 023c 54f4 aebb e120 d7ba
00000370: 9d6f ae3a 2830 3ebc 891f 0bbc 279d c8bc
00000380: ae5a 883b 088b 153b cc0f 833b 4dc3 d1ba
00000390: 21b3 c13b 586e 8e3a 632b e13b fa7f 9bbb
000003a0: 51fc ccba 697e cc3b dc78 b93b 53ac 23bb
000003b0: 9b0b d9bb 84bb 2f3c bc83 e93b 7404 18bc
000003c0: 93d4 18bc 16c3 8eb9 7c89 74bc 51f5 5bbc
000003d0: 0997 923c 9d8b b7bb 02db 883a 2754 62bb
000003e0: 56cd 393c d268 533c 35d5 2bbc cfd2 0abc
000003f0: 63a8 2dbc 025c ce3b 7697 00bc bea3 32bc

Conv2D f4 [8, 10, 8, 1]
-0.017640421 -0.010238055 -0.02708896 -0.007579522 -0.03121671 -0.0054630646 -0.008840251 -0.00044890854
-0.011352521 -0.010670028 -0.0039884597 0.014352592 -0.012619373 0.009749337 -0.004925259 0.0034646427
0.014052308 0.014656909 0.012238721 0.027337331 0.008066451 0.018582236 0.00033811084 0.010082623
0.028978983 0.033776365 0.026550729 0.024241926 0.02964309 0.017937629 0.010698513 0.014241455
0.013917379 0.0018173133 -0.0052561522 -0.0035394377 0.0042564836 -0.009292045 -0.018026138 -0.014830858
-0.03703445 -0.020231837 -0.031510413 -0.045696925 -0.01696129 -0.052328084 -0.036209103 -0.0435542
-0.047600433 -0.054226387 -0.03834351 -0.045222286 -0.0342387 -0.04614365 -0.022648532 -0.055478454
-0.0146805905 0.009463776 3.5383295e-05 0.0066702007 0.0031143853 0.0029155426 0.0045306156 -0.00041610294
0.012857386 0.023405278 0.027584065 0.03970647 0.02111841 0.03222383 0.038834933 0.012823239
-0.0078581115 0.036351293 0.023764206 0.038578432 0.0048648007 0.026588913 0.0069074626 0.009954144
0.01452648 0.0054290355 0.028758194 -1.2968867e-05 0.036230564 -0.0029944684 0.05308922 0.047386423
0.007478565 -0.005751608 0.02750396 -0.0072087864 0.034629807 -0.018881058 0.04499607 0.020446701
-0.0014532685 -0.009009285 0.021137621 -0.024707025 0.041976217 -0.024645006 0.033926215 0.0020708204
-0.0071185334 -0.03068777 0.028929785 -0.033789128 0.059804514 -0.02134776 0.045882568 0.010023665
-0.017773852 -0.042614266 0.030403111 -0.03737301 0.055628374 -0.024939999 0.047827575 0.00030709343
-0.03548122 -0.053202104 0.018263476 -0.027672347 0.057555713 -0.0013851023 0.032038063 0.024671989
-0.03442607 -0.051896904 0.008980142 -0.027373012 0.043674175 0.0012189986 0.030224808 0.01600655
-0.046003487 -0.052767035 -0.02397224 -0.012844859 0.015120041 0.009327068 0.007843197 0.022779763
-0.0541017 -0.07642862 -0.056889813 -0.043660626 -0.027173834 -0.027312642 -0.027243864 -0.01976603
-0.05399566 -0.1097245 -0.04669956 -0.08096918 -0.059619445 -0.07660496 -0.035608426 -0.07567457
-0.062110595 0.0011276759 -0.02141367 0.018998183 0.015461761 0.032648154 0.05119461 0.058817632
-0.06744829 -0.007742829 -0.021315709 0.005354647 0.028048776 0.01763461 0.062467523 0.03586208
-0.06363304 -0.01795777 -0.019539138 0.0055850996 0.02271112 0.0059621283 0.05742446 0.007489907
-0.06376505 -0.03773929 -0.009609266 -0.0027918788 0.049871 0.002004142 0.06275881 0.0056011844
-0.06268203 -0.045020163 -0.010763908 -0.009961415 0.045059405 0.0025880751 0.054014582 0.004432884
-0.037605446 -0.046336032 -0.01853086 -0.014260722 0.036544427 0.0075604348 0.044729587 0.007880834
-0.0378213 -0.053088404 -0.026879016 -0.026021507 0.00766925 0.0041492227 0.025801104 -0.00027612614
-0.019144557 -0.03871531 -0.026879828 -0.032228082 -0.029212302 -0.017923467 -0.00027901647 -0.025134183
-0.0147494 -0.051194634 -0.034701627 -0.072716914 -0.054798823 -0.06340288 -0.045224484 -0.076662086
-0.009024054 -0.05938455 -0.02416759 -0.06264983 -0.043459713 -0.06983922 -0.048941772 -0.094055586
0.04242876 0.040656798 0.027368462 0.025824243 0.025506273 0.006804087 -0.005073721 -0.05521941
0.044719465 0.027492333 0.03268463 0.014124863 0.017823566 -0.009008352 -0.014202042 -0.07386645
00000000: a582 90bc 84bd 27bc abe9 ddbc a45d f8bb
00000010: 30ba ffbc 8203 b3bb b3d6 10bc 7c5b ebb9
00000020: edff 39bc 57d1 2ebc a0b1 82bb 2227 6b3c
00000030: 7dc1 4ebc afbb 1f3c 1164 a1bb 0f0f 633b
00000040: a73b 663c 8823 703c eb84 483c 8af2 df3c
00000050: 2629 043c c639 983c 7844 b139 9631 253c
00000060: 5565 ed3c 1659 0a3d ea80 d93c 0197 c63c
00000070: 11d6 f23c eff1 923c d148 2f3c fe54 693c
00000080: b805 643c ea32 ee3a cd3b acbb e9f5 67bb
00000090: f979 8b3b a93d 18bc 8dab 93bc 21fd 72bc
000000a0: 6fb1 17bd 3dbd a5bc 1011 01bd b32c 3bbd
000000b0: 67f2 8abc f955 56bd ff4f 14bd e465 32bd
000000c0: acf8 42bd 7d1c 5ebd 160e 1dbd 013b 39bd
000000d0: e13d 0cbd 2001 3dbd 6a89 b9bc 603d 63bd
000000e0: dc86 70bc f40d 1b3c 8668 1438 b391 da3b
000000f0: b71a 4c3b b012 3f3b 8f75 943b 6428 dab9
00000100: c9a7 523c 6dbc bf3c faf7 e13c 40a3 223d
00000110: 8400 ad3c 23fd 033d 6111 1f3d 9018 523c
00000120: 4fbf 00bc 18e5 143d 27ad c23c 6b04 1e3d
00000130: e868 9f3b fed0 d93c ff57 e23b b516 233c
00000140: 7900 6e3c 0de6 b13b 4e96 eb3c dc94 59b7
00000150: 8066 143d d83e 44bb 1574 593d 4418 423d
00000160: c00e f53b fc77 bcbb fc4f e13c af37 ecbb
00000170: fcd7 0d3d 73ac 9abc cd4d 383d d77f a73c
00000180: 997b beba ae9b 13bc ce28 ad3c 6366 cabc
00000190: 41ef 2b3d 53e4 c9bc 37f6 0a3d 9ab6 073b
000001a0: 9642 e9bb eb64 fbbc 28fe ec3c 7866 0abd
000001b0: 94f5 743d 7fe1 aebc 5cef 3b3d 4c3a 243c
000001c0: 789a 91bc 4c8c 2ebd f20f f93c 7114 19bd
000001d0: 94da 633d f84e ccbc d9e6 433d 6201 a139
000001e0: c154 11bd 73ea 59bd 499d 953c 1eb1 e2bc
000001f0: 8abf 6b3d 528c b5ba 583a 033d e91c ca3c
00000200: 5a02 0dbd d991 54bd 7221 133c 5e3d e0bc
00000210: b1e3 323d cec6 9f3a 049a f73c 2b20 833c
00000220: 276e 3cbd 3f22 58bd 6e61 c4bc 3e73 52bc
00000230: 0cba 773c 8fd0 183c c180 003c a09c ba3c
00000240: bf99 5dbd 9c86 9cbd 4b05 69bd 7cd5 32bd
00000250: a99b debc c3be dfbc 862e dfbc 5fec a1bc
00000260: 8e2a 5dbd 3db7 e0bd 0a48 3fbd 2bd3 a5bd
00000270: 8533 74bd 10e3 9cbd 24da 11bd 45fb 9abd
00000280: ae67 7ebd 86ce 933a b96b afbc 14a2 9b3c
00000290: 5353 7d3c 12ba 053d 70b1 513d c2ea 703d
000002a0: 5422 8abd 8fb7 fdbb 489e aebc 0976 af3b
000002b0: 8cc6 e53c 7576 903c f2dd 7f3d 1ee4 123d
000002c0: 0a52 82bd 2c1c 93bc 8b10 a0bc 3603 b73b
000002d0: ac0c ba3c f55d c33b e935 6b3d e56d f53b
000002e0: 4097 82bd 8494 1abd 2f70 1dbc f4f7 36bb
000002f0: 8945 4c3d ec57 033b b187 803d 248a b73b
00000300: 705f 80bd 1067 38bd 1a5b 30bc 3435 23bc
00000310: 3690 383d b29c 293b 653e 5d3d ba41 913b
00000320: 2b08 1abd daca 3dbd 08ce 97bc cea5 69bc
00000330: 9caf 153d 86bd f73b 5f36 373d 9d1e 013c
00000340: 82ea 1abd 3a73 59bd 6231 dcbc 0e2b d5bc
00000350: 554e fb3b 34f6 873b d65c d33c 06c5 90b9
00000360: 0cd5 9cbc f293 1ebd 1633 dcbc 9801 04bd
00000370: a34e efbc 3cd4 92bc f548 92b9 34e6 cdbc
00000380: 78a7 71bc 77b1 51bd 4b23 0ebd 9bec 94bd
00000390: bb74 60bd 5fd9 81bd 4f3d 39bd 0301 9dbd
000003a0: a0d9 13bc 373d 73bd 1cfb c5bc 8e4e 80bd
000003b0: d002 32bd dd07 8fbd 2b77 48bd 37a0 c0bd
000003c0: c8c9 2d3d be87 263d d333 e03c 5d8d d33c
000003d0: 88f2 d03c d2f4 de3b 7541 a6bb c02d 62bd
000003e0: c22b 373d 9a37 e13c 52e0 053d f86b 673c
000003f0: ba02 923c c497 13bc aeaf 68bc 4b47 97bd
