tflite/model.tflite (tflite, 22792 bytes, 2 tensors)

Conv2D i1 [8, 10, 8, 1]
-40 -23 -62 -17 -71 -13 -20 -1
-26 -24 -9 33 -29 22 -11 8
32 34 28 63 18 43 1 23
66 77 61 55 68 41 24 33
32 4 -12 -8 10 -21 -41 -34
-85 -46 -72 -105 -39 -120 -83 -100
-109 -124 -88 -104 -78 -106 -52 -127
-34 22 0 15 7 7 10 -1
29 54 63 91 48 74 89 29
-18 83 54 88 11 61 16 23
17 6 33 0 42 -3 61 55
9 -7 32 -8 40 -22 52 24
-2 -10 24 -29 49 -29 39 2
-8 -36 33 -39 69 -25 53 12
-21 -49 35 -43 64 -29 55 0
-41 -62 21 -32 67 -2 37 29
-40 -60 10 -32 51 1 35 19
-53 -61 -28 -15 18 11 9 26
-63 -88 -66 -51 -31 -32 -32 -23
-62 -127 -54 -94 -69 -89 -41 -88
-84 2 -29 26 21 44 69 79
-91 -10 -29 7 38 24 84 48
-86 -24 -26 8 31 8 78 10
-86 -51 -13 -4 67 3 85 8
-85 -61 -15 -13 61 3 73 6
-51 -63 -25 -19 49 10 60 11
-51 -72 -36 -35 10 6 35 0
-26 -52 -36 -44 -39 -24 0 -34
-20 -69 -47 -98 -74 -86 -61 -104
-12 -80 -33 -85 -59 -94 -66 -127
55 53 36 34 33 9 -7 -72
58 36 43 18 23 -12 -19 -96
00000000: d8e9 c2ef b9f3 ecff e6e8 f721 e316 f508
00000010: 2022 1c3f 122b 0117 424d 3d37 4429 1821
00000020: 2004 f4f8 0aeb d7de abd2 b897 d988 ad9c
00000030: 9384 a898 b296 cc81 de16 000f 0707 0aff
00000040: 1d36 3f5b 304a 591d ee53 3658 0b3d 1017
00000050: 1106 2100 2afd 3d37 09f9 20f8 28ea 3418
00000060: fef6 18e3 31e3 2702 f8dc 21d9 45e7 350c
00000070: ebcf 23d5 40e3 3700 d7c2 15e0 43fe 251d
00000080: d8c4 0ae0 3301 2313 cbc3 e4f1 120b 091a
00000090: c1a8 becd e1e0 e0e9 c281 caa2 bba7 d7a8
000000a0: ac02 e31a 152c 454f a5f6 e307 2618 5430
000000b0: aae8 e608 1f08 4e0a aacd f3fc 4303 5508
000000c0: abc3 f1f3 3d03 4906 cdc1 e7ed 310a 3c0b
000000d0: cdb8 dcdd 0a06 2300 e6cc dcd4 d9e8 00de
000000e0: ecbb d19e b6aa c398 f4b0 dfab c5a2 be81
000000f0: 3735 2422 2109 f9b8 3a24 2b12 17f4 eda0

MatMul i1 [5, 4000] scale=0.00044117073 zero_point=0
-0.007941073 -0.009264586 0.0017646829 0.00088234147 -0.01191161 0.00088234147 0.009705756 0.00088234147
-0.03088195 -0.00617639 0.003088195 -0.016764488 0.0035293659 -0.0057352195 -0.00044117073 0.012793952
-0.022499707 0.0052940487 -0.003088195 0.009705756 -0.01235278 0.0013235122 -0.0017646829 0.008382244
-0.014999805 0.003088195 0.007941073 0.0013235122 0.0057352195 0.004852878 -0.0035293659 -0.026029073
-0.028234927 0.011470439 -0.0035293659 -0.008823414 0.010588097 0.00617639 -0.011029269 -0.026470244
-0.018970342 0.011470439 0.004411707 -0.011029269 0.018970342 0.0013235122 0.007941073 -0.011029269
-0.008382244 -0.0070587317 -0.004852878 0.0013235122 -0.009705756 -0.0057352195 -0.01235278 -0.0141174635
0.00617639 -0.0035293659 0.010146927 -0.0052940487 -0.00617639 0.004411707 -0.003088195 -0.008382244
-0.01720566 -0.007941073 0.008382244 -0.0022058536 0.013676293 -0.00088234147 0.013235122 -0.0070587317
-0.009705756 -0.004852878 0.008823414 0.003088195 0.003088195 0.0052940487 0.003088195 -0.00617639
-0.010146927 -0.009264586 -0.003088195 -0.011470439 -0.013676293 -0.008823414 -0.00617639 -0.0022058536
-0.015440975 -0.0017646829 0.00044117073 -0.0074999025 -0.004411707 -0.007941073 -0.003088195 -0.012793952
-0.01191161 0.013235122 -0.006617561 -0.0052940487 0.009705756 0.010588097 0.0026470243 -0.008382244
-0.016323317 0.0141174635 0.010146927 0.0026470243 0.017646829 0.016764488 0.0013235122 -0.0017646829
-0.0022058536 0.014999805 0.018970342 -0.016323317 -0.009264586 0.00044117073 0.011029269 -0.009264586
-0.010588097 0.0026470243 -0.012793952 0.0022058536 0.006617561 0.010588097 -0.0022058536 -0.013235122
0.008823414 -0.011029269 -0.00044117073 -0.014558634 0.00088234147 -0.0057352195 0.008382244 -0.0013235122
-0.0141174635 0.014999805 -0.010588097 0.006617561 0.004411707 -0.0017646829 0.018088 0.0074999025
-0.0013235122 -0.0022058536 0.0017646829 -0.010146927 -0.0057352195 -0.0022058536 -0.0035293659 -0.00044117073
-0.0070587317 0.0070587317 0.012793952 0.003088195 0.008382244 -0.015440975 0.009705756 -0.0022058536
0.014558634 -0.012793952 -0.018529171 -0.01720566 -0.0035293659 0.013235122 0.0013235122 0.01720566
-0.0035293659 -0.0074999025 -0.0070587317 0.00088234147 -0.019852683 0.0039705364 -0.0035293659 0.040146537
0.006617561 0.0 0.0026470243 0.0039705364 -0.010146927 -0.006617561 0.012793952 -0.0026470243
-0.0026470243 -0.0052940487 -0.013676293 0.01191161 -0.008823414 0.0052940487 0.0022058536 -0.018970342
0.017646829 0.00617639 0.012793952 0.009264586 0.0013235122 0.0039705364 0.009705756 -0.011470439
0.013676293 -0.013676293 -0.0013235122 -0.0022058536 0.0017646829 0.01191161 0.011470439 -0.022058537
-0.013676293 -0.0013235122 0.004852878 0.013676293 0.015882146 -0.010146927 0.0141174635 -0.018970342
-0.01191161 0.007941073 -0.0052940487 -0.0017646829 0.0013235122 -0.011470439 -0.008382244 -0.02470556
0.0039705364 0.0022058536 0.0039705364 -0.0017646829 0.0057352195 0.00088234147 0.0070587317 -0.004852878
-0.0017646829 0.00617639 0.0057352195 -0.0026470243 -0.006617561 0.010588097 0.0070587317 -0.009264586
-0.009264586 -0.00044117073 -0.014999805 -0.013235122 0.018088 -0.0057352195 0.00088234147 -0.0035293659
0.011470439 0.012793952 -0.010588097 -0.008382244 -0.010588097 0.00617639 -0.007941073 -0.011029269
00000000: eeeb 0402 e502 1602 baf2 07da 08f3 ff1d
00000010: cd0c f916 e403 fc13 de07 1203 0d0b f8c5
00000020: c01a f8ec 180e e7c4 d51a 0ae7 2b03 12e7
00000030: edf0 f503 eaf3 e4e0 0ef8 17f4 f20a f9ed
00000040: d9ee 13fb 1ffe 1ef0 eaf5 1407 070c 07f2
00000050: e9eb f9e6 e1ec f2fb ddfc 01ef f6ee f9e3
00000060: e51e f1f4 1618 06ed db20 1706 2826 03fc
00000070: fb22 2bdb eb01 19eb e806 e305 0f18 fbe2
00000080: 14e7 ffdf 02f3 13fd e022 e80f 0afc 2911
00000090: fdfb 04e9 f3fb f8ff f010 1d07 13dd 16fb
000000a0: 21e3 d6d9 f81e 0327 f8ef f002 d309 f85b
000000b0: 0f00 0609 e9f1 1dfa faf4 e11b ec0c 05d5
000000c0: 280e 1d15 0309 16e6 1fe1 fdfb 041b 1ace
000000d0: e1fd 0b1f 24e9 20d5 e512 f4fc 03e6 edc8
000000e0: 0905 09fc 0d02 10f5 fc0e 0dfa f118 10eb
000000f0: ebff dee2 29f3 02f8 1a1d e8ed e80e eee7
